model.pth (torch, 144083 bytes, 4 tensors)

linear1.weight f4 [133, 133]
0	0xbd04e3ac	-0.032443687
1	0xbd21af15	-0.03947361
2	0x3d0f9df6	0.035062753
3	0x3d32981a	0.043602087
4	0x3d55966e	0.052145414
5	0xbdb18bde	-0.08669256
6	0xbcdca808	-0.026935592
7	0x3d2dac9a	0.042400934
8	0x3d641c32	0.05569095
9	0x3d604e5e	0.054762237
10	0x3da5b665	0.080914296
11	0xbbd40970	-0.0064708516
12	0xbd8dbd6d	-0.06920896
13	0xbd860a3e	-0.06544922
14	0x3d7e0326	0.06201472
15	0x3d58d646	0.052938722
16	0x3d41314e	0.04716616
17	0xbd42e36d	-0.04758017
18	0xbd6eabda	-0.05826936
19	0x3c5eb628	0.013593234
20	0xbd3d2d91	-0.046186034
21	0xbcd1c17a	-0.025604952
22	0xbd241793	-0.040061545
23	0x3d874f4d	0.06606922
24	0xbc205800	-0.009786606
25	0xbd743c1d	-0.05962764
26	0x3d9a0443	0.07520344
27	0x3d50e946	0.051003717
28	0x3d83ea9b	0.06441232
29	0x3d0fe55c	0.035130844
30	0xbc300888	-0.0107442215
31	0xbd209438	-0.039203852
32	0xbd8d0e85	-0.06887535
33	0x3cba4a64	0.02274055
34	0xbcac646c	-0.021043979
35	0x3c972084	0.018448122
36	0xbd972049	-0.07379205
37	0x3da4b2db	0.080419265
38	0x3d1ca2f8	0.038241357
39	0xbdad9c8d	-0.08477125
40	0x3d7b9152	0.061417885
41	0x3c672448	0.014107771
42	0xbc4bcdb8	-0.012439184
43	0x3bb63a40	0.005561143
44	0x3d67a03a	0.05654929
45	0x3cd14eb8	0.025550231
46	0xbc527558	-0.01284536
47	0x3d2a0f3e	0.041518442
48	0xbcc83dce	-0.024443533
49	0x3c0a5ba0	0.008444697
50	0xbc85d3b0	-0.016336292
51	0xbc9cad4c	-0.019125603
52	0x3d34b4ee	0.04411786
53	0x3cd42634	0.025897123
54	0x3c8a19ec	0.016858064
55	0xbc690f80	-0.014224887
56	0x3d806bf5	0.06270591
57	0x3da604d5	0.081063904
58	0x3d9d0b03	0.07668116
59	0xbd3230e9	-0.043503676
60	0x3d215b3e	0.039393656
61	0xbc2c3350	-0.010510281
62	0x3c3d2280	0.01154387
63	0xbd0829a3	-0.033242833
64	0xbcce7b00	-0.025205135
65	0xbc3a3c78	-0.011366956
66	0x3da0d01d	0.078521945
67	0x3c292c60	0.010325521
68	0xbc10b518	-0.008832239
69	0x3d7b3852	0.061333008
70	0xbca0e2b8	-0.019639358
71	0xbcc21280	-0.023690462
72	0x3c069dd0	0.008216336
73	0xbd458869	-0.048225794
74	0x3dac68eb	0.08418449
75	0x3d72a6e6	0.059241198
76	0x3d25504e	0.040359788
77	0xbd9f9aa9	-0.07793171
78	0x3da95537	0.082682066
79	0xba749c00	-0.0009331107
80	0xbda66825	-0.08125333
81	0xbd950be5	-0.07277659
82	0xbd1fb904	-0.038994804
83	0x3bb87d80	0.005630195
84	0xbcc6ea24	-0.024281569
85	0x3d98cbfd	0.07460783
86	0xbc52d628	-0.012868442
87	0xbd90f66d	-0.07078252
88	0xbbc579c0	-0.0060264766
89	0x3ca00628	0.019534186
90	0x3c270468	0.010193922
91	0xbd853760	-0.065047026
92	0xbd3ccb0d	-0.04609208
93	0x3cc56a24	0.024098463
94	0xbca0db4c	-0.019635819
95	0x3c1465f0	0.009057507
96	0x3d3c23ba	0.04593251
97	0x3cfe8c60	0.031072795
98	0x3d185058	0.037185997
99	0xbd4f05c3	-0.050542604
100	0xbd7e6738	-0.062110156
101	0xbd8ee4e6	-0.06977253
102	0xbda3d2dd	-0.07999203
103	0x3d8da099	0.06915397
104	0xbc05b7b8	-0.008161478
105	0xbc8c9ad0	-0.017163664
106	0xbd9fe8a7	-0.07808047
107	0xbd5d0e30	-0.05396861
108	0xbc9d0ed0	-0.019172102
109	0x3d9efd59	0.07763166
110	0x3d98c93d	0.07460258
111	0xbd1524e9	-0.036412153
112	0x3d50c5c2	0.050969847
113	0x3d29078a	0.041266955
114	0x3cc352c8	0.023843184
115	0xbd20f741	-0.0392983
116	0xb92b2e00	-0.00016324967
117	0xbd0b7ae8	-0.03405276
118	0xbd8d1f9e	-0.06890796
119	0x3d22e606	0.03977015
120	0x3c090108	0.008362062
121	0xbd3510e1	-0.04420555
122	0xbd99a09d	-0.07501338
123	0xbb1e9660	-0.0024198517
124	0x3d1dc13a	0.038514353
125	0x3d8dd4fb	0.069253884
126	0x3d8b5d0f	0.06804859
127	0xbd4048b2	-0.046944328
128	0xbd6cf5ca	-0.05785159
129	0xbd90b662	-0.07066037
130	0x3da64165	0.08117942
131	0xbd421a71	-0.047388498
132	0x3da63f55	0.081175484
133	0x3da2707d	0.07931612
134	0x3cbbdb2c	0.022931658
135	0x3d6219da	0.055200435
136	0xbd5bbf23	-0.05364908
137	0x3cb14c60	0.021642864
138	0xbd8155ae	-0.0631517
139	0x3c7592c8	0.014988609
140	0x3d2b228a	0.041780986
141	0x3c64bde0	0.013961285
142	0xbd42063d	-0.04736923
143	0x3d867f87	0.06567293
144	0x3d2cfa3a	0.042230822
145	0xbd872692	-0.065991536
146	0xbce25f32	-0.027633283
147	0xbda6e44c	-0.08149013
148	0xbd0d2708	-0.03446105
149	0x3c86a9c0	0.016438365
150	0xbcd2a4ae	-0.025713291
151	0x3c6895f0	0.014195904
152	0x3d234fce	0.03987103
153	0x3bd69da0	0.006549552
154	0x3d774696	0.06037005
155	0xbc6ece78	-0.014575593
156	0xbda9acfc	-0.08284947
157	0xbda42805	-0.080154456
158	0x3d66e246	0.056368135
159	0x3d956815	0.07295243
160	0x3d35fe5e	0.044432037
161	0xbd33ccb9	-0.04389641
162	0x3d4b8d46	0.049695276
163	0x3d3a14e2	0.04543007
164	0xbd85fb36	-0.06542055
165	0x3cbac220	0.022797644
166	0xbba17d60	-0.004928276
167	0x3d446d2a	0.04795567
168	0x3d3cb6c2	0.04607273
169	0xbc7f1280	-0.015568376
170	0xbd92da7e	-0.0717058
171	0xbd229a25	-0.039697785
172	0x3cd620d4	0.0261387
173	0x3d8c87a3	0.06861808
174	0xbc88f5ec	-0.016718827
175	0xbd471f24	-0.048613682
176	0x3d761ce2	0.06008614
177	0xbd8d6ebb	-0.06905886
178	0xbd9d3b63	-0.07677343
179	0xbd57836f	-0.05261558
180	0x3c800fc8	0.015632525
181	0xbcb539c8	-0.022122279
182	0xbcc92a66	-0.02455635
183	0x3d93b50b	0.072122656
184	0xbd93c29b	-0.072148524
185	0xbd7df6fe	-0.06200313
186	0xbcc58e4c	-0.024115704
187	0x3d6e0be2	0.0581168
188	0x3d8b6dbb	0.06808039
189	0xbd63683c	-0.055519328
190	0xbd7ca144	-0.061677232
191	0x3da999f3	0.082813166
192	0x3dae4f4d	0.08511219
193	0xbd9ca738	-0.07649082
194	0x3d483b36	0.048884593
195	0xbda1ec9f	-0.0790646
196	0xbca1309c	-0.0196765
197	0xbd9ea6df	-0.07746672
198	0x3d365c7e	0.0445218
199	0x3d2422fe	0.040072434
200	0xbdaee7db	-0.08540317
201	0x3d44e5aa	0.048070587
202	0xbce3b9a6	-0.027798485
203	0x3da547bf	0.08070325
204	0x3d014d4e	0.031567864
205	0xbd5f1d32	-0.054471202
206	0xbd84c8c5	-0.06483606
207	0x3bc88b20	0.0061201006
208	0xbc538cb0	-0.0129119605
209	0xbd9c38fb	-0.07628056
210	0xbc859468	-0.016306117
211	0x3d00529c	0.031328782
212	0x3c87ea34	0.016591169
213	0x3bbb3870	0.005713515
214	0x3cdadefc	0.026717655
215	0xbcfdf1aa	-0.030999023
216	0x3d2741ee	0.04083436
217	0xbd84baa3	-0.06480911
218	0x3c7faa80	0.015604615
219	0xbcb5b95c	-0.022183113
220	0xbc21bed0	-0.009872153
221	0xbd40873c	-0.04700397
222	0xbda44313	-0.08020606
223	0xbc5b2530	-0.013375565
224	0x3d3db216	0.046312414
225	0x3cb902d8	0.022584364
226	0x3d867765	0.065657414
227	0x3d0290bc	0.03187631
228	0xbc806fa8	-0.015678242
229	0x3b925c70	0.004466586
230	0x3d74bbda	0.05974946
231	0x3cd7de7c	0.026351206
232	0x3d953909	0.07286269
233	0xbcc3b4fc	-0.023890011
234	0x3ce88cb8	0.028387412
235	0x3da7a7b3	0.08186283
236	0x3d9dd3dd	0.07706425
237	0xbd9e95d0	-0.07743418
238	0x3aec9f80	0.0018052906
239	0x3da1d92b	0.0790275
240	0xbd99bc10	-0.07506573
241	0x3cb74724	0.02237279
242	0x3d9610db	0.07327434
243	0xbbd214e0	-0.00641118
244	0xbd81329f	-0.06308483
245	0x3c721840	0.014776289
246	0x3d44b6a2	0.048025735
247	0x3b4bf6c0	0.0031122416
248	0x3bce0340	0.0062870085
249	0xbd750bc6	-0.05982568
250	0xbd35beaf	-0.044371303
251	0x3d5007d2	0.050788708
252	0xbda78f9c	-0.08181688
253	0x3d0d951a	0.034566022
254	0x3c642768	0.013925411
255	0xbc31c888	-0.010851033

linear1.bias f4 [133]
0	0x3c1fa280	0.009743333
1	0xbd60e441	-0.05490518
2	0xbdaeb793	-0.08531108
3	0x39a81500	0.00032059103
4	0xbc214f98	-0.009845637
5	0xbd15cd43	-0.036572706
6	0x3d83a3e1	0.06427742
7	0xbda5b60a	-0.08091362
8	0xbc9b36dc	-0.018947057
9	0xbcd62e4a	-0.02614512
10	0xbd55853a	-0.052129008
11	0xbd07c7bd	-0.03314947
12	0x3d4fe27a	0.050753094
13	0xbd156ebc	-0.036482558
14	0xbda804ce	-0.082040414
15	0x3b69c5e0	0.0035670921
16	0x3da02c83	0.0782099
17	0x3d5e788a	0.054314174
18	0x3bdd2940	0.006749302
19	0xbceb569c	-0.028727822
20	0x3d913183	0.07089522
21	0x3a82ad00	0.0009969771
22	0x3d7ccf32	0.061721034
23	0xbd8e063b	-0.06934782
24	0xbd53c128	-0.05169788
25	0x3d04ae2a	0.03239266
26	0x3d7dd7e6	0.061973475
27	0x3d39d962	0.045373328
28	0xbd90f89b	-0.07078668
29	0xbda71dc5	-0.08159975
30	0x3cb078cc	0.021541975
31	0xbd2276d8	-0.03966412
32	0x3d964b47	0.07338577
33	0x3d8a69ad	0.06758437
34	0xbd862536	-0.06550066
35	0xbd206c13	-0.039165568
36	0xbb882af0	-0.004155509
37	0x3da9660b	0.08271416
38	0xbb05dea0	-0.0020426884
39	0xbd7c9f3a	-0.061675288
40	0x3da8e737	0.08247226
41	0xbbdeacc0	-0.0067954957
42	0x3d297252	0.04136879
43	0x3da8ecc1	0.08248282
44	0x3d9ae10d	0.07562456
45	0xbd9c59cf	-0.07634317
46	0x3d12b4e2	0.035817035
47	0xbd9f26a0	-0.07771039
48	0x3d3d7aa6	0.046259545
49	0x3d49a592	0.049230166
50	0xbb0b26a0	-0.002123274
51	0x3d9fec7b	0.07808777
52	0xbdaef650	-0.08543074
53	0xbae70840	-0.001762636
54	0xbda8a7b5	-0.082351126
55	0x3d3aaf72	0.045577474
56	0xbb6d4700	-0.003620565
57	0x3c674648	0.014115877
58	0x3ce81d8c	0.028334402
59	0x3c554cb0	0.013018772
60	0x3c8972bc	0.016778342
61	0xbd963780	-0.073348045
62	0x3b8977d0	0.004195191
63	0x3d752f62	0.05985964
64	0xbd4ef5f8	-0.050527543
65	0x3cef85a8	0.029238537
66	0x3d96ecb1	0.07369364
67	0x3d9f7c8b	0.077874266
68	0xbd23142e	-0.039814167
69	0x3bfac570	0.007652931
70	0x3bc3f750	0.0059804097
71	0xbcaf7008	-0.021415725
72	0x3daaeec7	0.083463244
73	0x3bb561a0	0.0055353194
74	0xbcc3d4f0	-0.023905247
75	0xbda809ed	-0.08205018
76	0xbd94123c	-0.072300404
77	0x3d5307aa	0.05152098
78	0x3da0c8c5	0.07850794
79	0xbd922a16	-0.071369335
80	0xbd9206fe	-0.0713024
81	0xbaf2b100	-0.0018515885
82	0x3d9d8239	0.076908536
83	0xbd3c80ef	-0.0460214
84	0xbda4cec2	-0.080472484
85	0x3c6971b0	0.014248297
86	0xbd42cd2f	-0.04755896
87	0x3d81e7c7	0.06343036
88	0x3c4365a8	0.011926092
89	0x3d8464fd	0.064645745
90	0x3b9c53e0	0.004770741
91	0x3ce71428	0.028207853
92	0xbd0ae06e	-0.03390544
93	0xbd961f67	-0.07330208
94	0x3d98ee39	0.07467312
95	0xbb9724a0	-0.0046125203
96	0xbd453ae4	-0.048151866
97	0xbda57c8c	-0.08080396
98	0xbc3c0da8	-0.011477865
99	0x3d82f341	0.06394053
100	0xbd250f79	-0.04029796
101	0xbc003298	-0.0078245625
102	0xbd1e403f	-0.03863549
103	0x3d83f769	0.06443674
104	0x3d88513d	0.0665612
105	0x3cb8d29c	0.022561364
106	0x3b200420	0.0024416521
107	0xbcebc692	-0.02878121
108	0xbbcfe670	-0.006344609
109	0x3d483bd2	0.048885174
110	0x3da021ff	0.07818984
111	0x3c2ec330	0.0106666535
112	0x3cadc138	0.021210298
113	0x3d1e9af6	0.038722
114	0xbdafd509	-0.08585555
115	0xbcc30fc8	-0.023811236
116	0xbd029e2b	-0.031889122
117	0x3d5b5386	0.05354645
118	0x3c928518	0.01788573
119	0x3d29c5b2	0.041448303
120	0xbcf9ff06	-0.030517112
121	0xbd3ac198	-0.04559478
122	0x3d7ba48e	0.06143623
123	0xbd3aa827	-0.04557052
124	0x3d9fb96d	0.07799039
125	0xbd50d439	-0.05098364
126	0xbd1c0f34	-0.038100436
127	0xbcb6d954	-0.022320427
128	0x3cd02a58	0.025410816
129	0x3c2b0130	0.010437295
130	0xbd61afeb	-0.05509941
131	0xbb872c20	-0.004125133
132	0x3d73a546	0.05948379

linear2.weight f4 [133, 133]
0	0xbcccce0a	-0.02500059
1	0x3d803e1f	0.06261849
2	0x3b9a29e0	0.004704699
3	0xbd539d0e	-0.05166345
4	0x3cb8359c	0.0224865
5	0x3d761baa	0.060084976
6	0x3d5942fe	0.053042404
7	0x3d975b27	0.07390433
8	0x3bd0bbd0	0.0063700452
9	0x3d52bfda	0.051452495
10	0x3c4fa448	0.012673445
11	0x3dacdb0b	0.08440217
12	0x3cfb2840	0.030658841
13	0x3d4a3f22	0.049376614
14	0xbd5a9bc7	-0.053371217
15	0x3d9ff1f3	0.0780982
16	0x3c8940cc	0.01675453
17	0x3c1e56c8	0.009664245
18	0xbda5d18f	-0.08096611
19	0xbd8f5a35	-0.069996275
20	0x3cc7d470	0.02439329
21	0x3c93e9e4	0.018055864
22	0x3cdad608	0.026713386
23	0x3c8b36d8	0.016993925
24	0xbd2ea4b0	-0.042637527
25	0xbd02b790	-0.03191334
26	0x3d6f3d8e	0.058408312
27	0x3cd2f398	0.02575092
28	0x3bd90950	0.0066234246
29	0xbd879a4c	-0.06621227
30	0xbc96d90c	-0.018414043
31	0x3d0a30be	0.03373789
32	0xbd459e9c	-0.048246965
33	0xbd07bf46	-0.033141397
34	0xbd92fefb	-0.0717754
35	0xbc9501f8	-0.018189415
36	0x3c3bb548	0.011456795
37	0x3b98db20	0.0046647936
38	0x3cff9ed0	0.031203657
39	0xbda4339e	-0.08017658
40	0xbda91f96	-0.08257978
41	0x3d9a3b61	0.07530857
42	0xbd97b69c	-0.07407877
43	0x3d1b127a	0.037859417
44	0x3d1ace3c	0.037794337
45	0xbcaeed7c	-0.021353476
46	0x3d17f9c0	0.037103415
47	0xbcbd8088	-0.023132578
48	0x3ce47fd4	0.027892984
49	0x3d4fbece	0.050719075
50	0xbd40cf74	-0.047072843
51	0xbc49ad20	-0.012309343
52	0xbca941a8	-0.02066119
53	0x3d95aad7	0.07307976
54	0x3d7cdf72	0.06173653
55	0x3c0a04c8	0.0084239915
56	0x3d4f1c26	0.050563954
57	0x3ca2aacc	0.019856833
58	0xbd5e1f56	-0.054229103
59	0xbd83c9e9	-0.06434996
60	0x3d9f8737	0.07789462
61	0x3d9bd3df	0.076087706
62	0xbd2b8c0b	-0.041881602
63	0xbd836af6	-0.064168856
64	0xbd6a49a9	-0.057199154
65	0xbd2754b5	-0.040852267
66	0x3d852a8f	0.06502258
67	0x3daed651	0.08536971
68	0xbd8246f8	-0.063611925
69	0x3d9352f9	0.0719356
70	0x3c0da228	0.008644618
71	0xbc3a95f8	-0.011388294
72	0xbd638a56	-0.05555185
73	0x3d249336	0.040179454
74	0x3ce7c7a8	0.028293446
75	0x3cd6379c	0.026149563
76	0xbd92bc5e	-0.071648344
77	0x3d7f6722	0.062354214
78	0xbcd0e508	-0.025499836
79	0xbc615f60	-0.013755649
80	0xbd71d928	-0.059044987
81	0xbd0e90ca	-0.03480605
82	0x3d6840ba	0.056702353
83	0x3d3567e6	0.04428854
84	0xbd63ddce	-0.05563145
85	0x3d7acea2	0.061232217
86	0x3d3c01a6	0.04590001
87	0x3cbfee64	0.023429103
88	0xbd3c51e5	-0.04597654
89	0x3d329e62	0.043608077
90	0xbd52b609	-0.051443134
91	0xbd4a06f3	-0.049323034
92	0x3d9eb88b	0.077500425
93	0x3cd87d04	0.0264268
94	0x3d9a7293	0.075413845
95	0x3d192988	0.037393123
96	0x3d27433a	0.040835597
97	0x3d924e35	0.07143823
98	0x3d5665a6	0.052343033
99	0x3d7409ea	0.059579767
100	0x3cd929dc	0.026509218
101	0x3d014696	0.031561457
102	0xbd3e77aa	-0.04650084
103	0xbd14a8f2	-0.03629393
104	0xbda22f09	-0.079191275
105	0x3da38a51	0.07985366
106	0x3b69c6e0	0.0035671517
107	0x3d7991da	0.06093011
108	0x3da08683	0.07838156
109	0x3a844180	0.0010090321
110	0xbd099746	-0.03359153
111	0xbc24bd08	-0.010054834
112	0x3d089620	0.033346295
113	0xbcef8e38	-0.02924262
114	0xbd41d36a	-0.04732076
115	0xbd97e826	-0.07417326
116	0x3d4817ce	0.048850827
117	0x3b8bb380	0.0042633414
118	0x3cf48c04	0.02985192
119	0x3c1b25c0	0.0094694495
120	0xbd363529	-0.04448429
121	0x3cda7f84	0.026672132
122	0x3d78c066	0.06073036
123	0xbba463d0	-0.0050167814
124	0x3c88629c	0.016648583
125	0x3d3f8d6e	0.046765737
126	0xbd1a2c18	-0.037639707
127	0x3d1c4966	0.038155936
128	0xbcb09178	-0.02155374
129	0x3d63855a	0.055547096
130	0xbcb589e8	-0.022160485
131	0xbd6748ad	-0.056465793
132	0x3dae8caf	0.08522927
133	0x3d6bd9a2	0.057580598
134	0x3d892341	0.06696177
135	0xbd3d6515	-0.046238977
136	0x3d87d6bf	0.066327564
137	0x3d460dca	0.048352994
138	0xbd4d1cc1	-0.05007625
139	0xbda56c0d	-0.0807725
140	0x3d9e12cd	0.0771843
141	0x3d16cad6	0.036814533
142	0xbaf08e80	-0.0018353015
143	0x3c2e0bd8	0.010622941
144	0x3dadf76d	0.08494458
145	0x3d9d7911	0.07689107
146	0xbd3ff2c1	-0.046862368
147	0x3cd6fe1c	0.026244216
148	0x3ca6b318	0.02034907
149	0x3ceda648	0.029009953
150	0x3cd1f868	0.025631145
151	0x3d09396e	0.033502035
152	0x3cfa4b88	0.030553594
153	0x3c9504a4	0.01819069
154	0xbd8a10d4	-0.06741491
155	0x3cac2b98	0.02101688
156	0xbb941f80	-0.0045203567
157	0xbd02b149	-0.031907354
158	0xbd21845b	-0.039432865
159	0xbd7fadbe	-0.062421553
160	0xbda89874	-0.08232203
161	0xbd3a6c50	-0.04551345
162	0x3d845687	0.06461816
163	0xbc7ea5b8	-0.01554244
164	0xbbd591b0	-0.0065176114
165	0x3d26146a	0.040546812
166	0x3ce3fb98	0.02782993
167	0x3da17abb	0.07884737
168	0xbd666e08	-0.056257278
169	0x3c3c3900	0.011488199
170	0xbcd23c48	-0.02566351
171	0xbd505647	-0.05086353
172	0xbc525950	-0.012838677
173	0xbd8257e4	-0.0636442
174	0xbd2c615f	-0.042085048
175	0x3d848b3d	0.0647187
176	0x3d54aeba	0.051924445
177	0xbce8154a	-0.028330464
178	0xbd2b60aa	-0.041840233
179	0xbd658b46	-0.056041025
180	0xbd8ef9a2	-0.069812074
181	0x3d55889a	0.052132227
182	0x3c3e1de0	0.011603802
183	0x3cff47e8	0.031162217
184	0xbd5ec642	-0.054388292
185	0xbd87d1dc	-0.066318244
186	0x3d78b02a	0.06071488
187	0x3d2741f6	0.04083439
188	0x3da3a051	0.07989562
189	0xbd333762	-0.04375399
190	0xbb28cd40	-0.0025757104
191	0x3da52c17	0.0806505
192	0x3c66f308	0.014096029
193	0xbbbc0740	-0.005738169
194	0x3d2452aa	0.040117897
195	0xbbb4cda0	-0.0055176765
196	0xbd2b5946	-0.041833185
197	0x3d037b64	0.032100096
198	0xbd8e50dc	-0.069490165
199	0xbd895708	-0.06706053
200	0x3d9a5a4f	0.07536756
201	0x3c41c380	0.011826396
202	0x3baef120	0.005338803
203	0x3d9a0193	0.075198315
204	0x3c5194e0	0.012791842
205	0x3d92e7f5	0.071731485
206	0xbd82a33d	-0.063787915
207	0x3d8eec4b	0.06978663
208	0x3da230ad	0.079194404
209	0xbd6cbf82	-0.057799824
210	0x3c024338	0.0079505965
211	0xbd6e6c00	-0.058208466
212	0xbd83fd7e	-0.06444834
213	0xbd9b56fa	-0.07584949
214	0xbd9b8aa8	-0.07594806
215	0x3ced0818	0.028934523
216	0xbb534a60	-0.0032240376
217	0xbd83d631	-0.06437338
218	0x3d5164a6	0.051121376
219	0x3d899cb5	0.067193426
220	0xbd64be94	-0.055845812
221	0x3ac76200	0.0015211701
222	0xbd9a61df	-0.07538199
223	0xbc87dfb4	-0.016586162
224	0x3d1b93b8	0.037982672
225	0x3c91ce64	0.01779861
226	0x3c43f1a0	0.011959463
227	0xbd544125	-0.05181994
228	0xbd8d344b	-0.0689474
229	0x3d846fe5	0.06466655
230	0xbd4e1ad7	-0.050318565
231	0x3d809cc9	0.062799044
232	0x3da23d7b	0.07921883
233	0x3cbd2850	0.023090512
234	0xbd2cee8c	-0.042219684
235	0x3d578e3e	0.052625887
236	0xbd0ec23a	-0.034853198
237	0x3c69a338	0.014260106
238	0xbcf1a55c	-0.029497795
239	0x3c9e79b8	0.01934515
240	0xbb859d50	-0.004077591
241	0x3d0e2d46	0.034711145
242	0xbbdbc060	-0.0067062825
243	0x3d50fa2a	0.051019825
244	0x3da4fab3	0.080556296
245	0xbce355e8	-0.027750924
246	0xbae359c0	-0.0017345473
247	0xbc39d030	-0.01134114
248	0xbca8c7d0	-0.02060309
249	0xbc859afc	-0.016309254
250	0xbcf4ed3e	-0.029898282
251	0x3cf652e0	0.030068815
252	0xbd2b1924	-0.041772023
253	0x3b877990	0.0041343644
254	0xbd327006	-0.043563865
255	0xbd407a06	-0.04699137

linear2.bias f4 [133]
0	0xbb182ce0	-0.0023220107
1	0xbb8a3870	-0.0042181537
2	0x3d98c6d7	0.07459801
3	0x3d91feb1	0.07128657
4	0xbd943c68	-0.07238084
5	0x3a705600	0.00091680884
6	0x3956c800	0.00020483136
7	0x3d5ada86	0.053431056
8	0xbc291170	-0.010319099
9	0x3d93f2df	0.07224058
10	0x3c91aadc	0.017781667
11	0x3d60b0ce	0.054856114
12	0x3d64832a	0.05578915
13	0xba289680	-0.00064311177
14	0x3cb053cc	0.021524332
15	0xbd2b771a	-0.04186163
16	0xbd604116	-0.05474957
17	0x3c8890ec	0.016670667
18	0x3d185a5e	0.037195556
19	0xbc20cb00	-0.009814024
20	0xbc502440	-0.012703955
21	0x3cfab4dc	0.030603819
22	0xbd91f4f2	-0.07126798
23	0xbd87d75c	-0.066328734
24	0x3c8771b8	0.016533718
25	0x3d172c26	0.036907338
26	0x3d1127c0	0.0354383
27	0xbd32eca7	-0.04368272
28	0xbd934c2e	-0.071922645
29	0xbd6e338a	-0.05815462
30	0xba76d280	-0.0009415522
31	0x3d3d1fca	0.046172895
32	0xbd07cd02	-0.033154495
33	0xbd04a4bb	-0.03238366
34	0x3ce882c8	0.028382674
35	0x3d80e673	0.06293955
36	0xbc092f58	-0.008373104
37	0xbca8e67c	-0.020617716
38	0xbd29e049	-0.04147366
39	0x3cb6c220	0.022309363
40	0xbdad6fa4	-0.084685594
41	0x3d83f39f	0.064429514
42	0xbd2c929d	-0.04213201
43	0x3dae7815	0.085189976
44	0x3cd49b84	0.025953062
45	0x3d15dff0	0.036590517
46	0xbd3b281e	-0.045692556
47	0x3d93fa83	0.07225516
48	0xbd039d11	-0.032132212
49	0xba21ed80	-0.0006177053
50	0xbd602194	-0.054719523
51	0x3d8f92c5	0.07010416
52	0xbda27b9b	-0.07933732
53	0x3db110a9	0.08645756
54	0x3db13219	0.086521335
55	0x3ce11520	0.027475893
56	0x3d9f1a47	0.07768684
57	0xbda273ec	-0.079322666
58	0xbd0750e4	-0.033036128
59	0x3cd221f0	0.025650948
60	0x3da81e9b	0.082089625
61	0x3daa2bc5	0.083091296
62	0x3d948337	0.0725159
63	0xbd42a80d	-0.047523547
64	0xbdad2a62	-0.084553495
65	0xbd8a5d32	-0.06756057
66	0x3cf1201c	0.029434256
67	0x3d2165fe	0.039403908
68	0xbd4feeb9	-0.050764773
69	0x3c771830	0.01508145
70	0xbd7d9538	-0.061909884
71	0xbd51d4e1	-0.051228408
72	0x3d93dbb7	0.07219642
73	0xbce3b80a	-0.027797718
74	0x3d43ae66	0.04777374
75	0x3beb2750	0.0071763173
76	0xbca61338	-0.020272836
77	0x3d46ab1a	0.04850302
78	0x3d6b2bd6	0.057414852
79	0xbbaf2090	-0.005344458
80	0x3c87c1ec	0.016571961
81	0x3d00c990	0.031442225
82	0xbd84701e	-0.06466697
83	0x3c3792c0	0.0112044215
84	0xbab9a080	-0.0014162213
85	0x3cd9b98c	0.026577733
86	0xbd657b73	-0.056025933
87	0x3c83ace0	0.016073644
88	0x3d7d466a	0.06183473
89	0xbd933930	-0.07188642
90	0xbcc57a40	-0.024106145
91	0x3c4cd9a0	0.012503058
92	0xbc85a1d4	-0.016312517
93	0xbd87fc21	-0.06639887
94	0x3bf77c10	0.007552631
95	0xbd55bc28	-0.052181393
96	0xbcf83a28	-0.030301169
97	0xbc1a31f0	-0.00941132
98	0x3d1dbc66	0.03850975
99	0x3c6a47d8	0.014299355
100	0x3d80e459	0.06293554
101	0xbc9482f0	-0.018128842
102	0xbd950ca9	-0.07277805
103	0xbd73bf08	-0.059508353
104	0xbd7bd072	-0.061478086
105	0xbda5dfdc	-0.080993384
106	0x39eb1600	0.00044839084
107	0xbd904761	-0.070448644
108	0xbd55cd40	-0.052197695
109	0xbd11690b	-0.035500567
110	0xbd2f2b51	-0.04276592
111	0xbca55638	-0.020182714
112	0xbc8b0680	-0.016970873
113	0x3da0b8b1	0.07847727
114	0xbd3c9c7d	-0.046047676
115	0x3d29076e	0.04126685
116	0x3da671e5	0.081271924
117	0x3c83d16c	0.016091071
118	0x3db1516b	0.08658107
119	0xbd014097	-0.03155574
120	0xbd96dd18	-0.07366389
121	0xbc9b05a0	-0.01892358
122	0xbd3d4ef3	-0.04621787
123	0x3d08d0e2	0.03340233
124	0x3b24e900	0.0025163293
125	0x3dad35ff	0.084575646
126	0x3ce77578	0.028254256
127	0x3d539cae	0.051663093
128	0x3c265440	0.010151923
129	0x3b97b650	0.0046298876
130	0x3db13e51	0.08654464
131	0x3d254e32	0.040357776
132	0x3c9f95c0	0.019480586
